models/model.pth (torch, 11743 bytes, 4 tensors)

linear1.weight f4 [128, 16]
0	0x3e949fbf	0.29028127
1	0x3e67f61f	0.22652481
2	0xbccb3dbc	-0.02480971
3	0x3eaa8e94	0.33311903
4	0xbdcc1c50	-0.09966338
5	0x3d5e2d94	0.054242685
6	0xbda3b078	-0.07992643
7	0x3d2b2ae9	0.04178897
8	0xbc88f1ce	-0.016716864
9	0xbeafa70b	-0.3430713
10	0x3c4b8ed2	0.012424188
11	0x3c556ab2	0.013025926
12	0xbe88eb8e	-0.26742214
13	0xbe019de5	-0.12657888
14	0xbe0efcfd	-0.13963695
15	0xbcea454f	-0.028597502
16	0xc09ec6c8	-4.9617653
17	0xbff0be91	-1.8808156
18	0xc07a00ce	-3.906299
19	0xc083ebc2	-4.122529
20	0xbf76d842	-0.96423733
21	0x3f08fbed	0.5350941
22	0x3ffad99a	1.9597657
23	0xbfd8620d	-1.6904923
24	0xbf9a9de0	-1.207943
25	0xbed29cf5	-0.41135374
26	0xbf166768	-0.58751535
27	0x3cac3f92	0.021026406
28	0x4043a69e	3.0570445
29	0xbf72be15	-0.9482129
30	0x3dda5be6	0.106620595
31	0x3fc5b9fc	1.5447383
32	0xbdcc282c	-0.099686
33	0xbd340cd2	-0.04395754
34	0xbe276194	-0.16345817
35	0xbddd7e59	-0.108151145
36	0xbdb695f6	-0.089153215
37	0xbd59f331	-0.05321044
38	0x3e380a20	0.17972612
39	0x3d4cc58e	0.04999309
40	0x3c9ecae8	0.019383863
41	0xbd877383	-0.06613829
42	0x3e8e957f	0.2784843
43	0x3cc53e8a	0.024077673
44	0xbd05892c	-0.03260152
45	0xbe666f25	-0.22503336
46	0xbcea1a7f	-0.028577087
47	0xbdf2398c	-0.118273824
48	0xbf0345cc	-0.51278377
49	0xbd582699	-0.052771185
50	0xbede5083	-0.434208
51	0xbf0d89b1	-0.55288225
52	0xbebd39b8	-0.36958098
53	0xb9f6da16	-0.00047083263
54	0x3f067d8f	0.5253534
55	0xbecdcabc	-0.40193737
56	0xbefa4195	-0.4887816
57	0x3e1f8119	0.1557659
58	0xbccd5420	-0.025064528
59	0xbf25bce1	-0.6474133
60	0x3ea5311c	0.3226403
61	0x3cfd1275	0.03089259
62	0xbee77af8	-0.45211005
63	0xbddb379b	-0.10703965
64	0xbde12e24	-0.10995129
65	0xbe5314a0	-0.20613337
66	0x3c9f8c10	0.019475967
67	0xbd52fc50	-0.051510155
68	0x3d949b68	0.07256204
69	0x3e7377c2	0.23776153
70	0x3c4fdf20	0.0126874745
71	0x3d6e1998	0.058129877
72	0xbd809ca0	-0.06279874
73	0x3d437150	0.047715485
74	0x3dd73300	0.10507774
75	0xbe3772e8	-0.17914927
76	0xbc23be00	-0.00999403
77	0xbc474100	-0.012161493
78	0x3e4c23c0	0.19935513
79	0xbe4bd958	-0.19907129
80	0x3e4fb028	0.20282042
81	0x3e7f9a58	0.24961221
82	0xbd2e35b0	-0.04253167
83	0x3ce883c0	0.028383136
84	0x3d772dc8	0.060346395
85	0x3e61c47e	0.22047612
86	0xbe4e0638	-0.2011956
87	0x3e6a31b4	0.22870523
88	0xbdae2af4	-0.085042864
89	0xbdf8c814	-0.12147537
90	0xbcbba460	-0.022905529
91	0x3d4aa638	0.049474925
92	0x3c3d55c0	0.011556089
93	0x3df4f394	0.11960521
94	0x3e50846c	0.20363015
95	0xbdd60d6c	-0.10451779
96	0x3e050caa	0.12993112
97	0x3e3d1531	0.18465115
98	0xbe21c06b	-0.15796058
99	0xbda5ab2d	-0.0808929
100	0x3d55be64	0.052183524
101	0xbe375e67	-0.17907105
102	0x3e1bdb58	0.15220392
103	0xbdcf2e9f	-0.10116314
104	0xbe00ed36	-0.12590489
105	0x3ce718a8	0.02821
106	0xbe84983f	-0.25897405
107	0x3da60302	0.081060424
108	0xbdfffa45	-0.12498907
109	0x3e0914c6	0.1338683
110	0xbdae0071	-0.08496178
111	0x3d1e4c88	0.038647205
112	0x3ea09dc3	0.31370363
113	0x3e7e16b6	0.24813351
114	0x3ece8e2a	0.40342838
115	0x3dd1ceee	0.10244547
116	0x3df7a2a2	0.120915666
117	0x3e7afbf3	0.24510173
118	0x3ed84716	0.42241734
119	0x3b8ba721	0.0042618667
120	0xbd2ae50b	-0.04172234
121	0xbeb29b45	-0.34884086
122	0x3e820a85	0.2539865
123	0xbe8e79a3	-0.27827176
124	0xbdb7e848	-0.08979851
125	0xbc7ff962	-0.015623422
126	0xbce8931f	-0.028390465
127	0xbeccb902	-0.399849
128	0xbe101b2e	-0.14072868
129	0x3e4f36f8	0.20235813
130	0xbd710770	-0.058844984
131	0xbd2ddd88	-0.042447597
132	0x3e6dfd7e	0.23241231
133	0xbd094480	-0.033512592
134	0x3e4c8716	0.19973406
135	0xbdc488c8	-0.095964015
136	0xbe3b069e	-0.18264243
137	0x3e391b00	0.18076706
138	0x3d9e968c	0.07743558
139	0x3d6bdca0	0.05758345
140	0xbe1fe002	-0.15612796
141	0x3e1c667c	0.1527347
142	0xbdadae14	-0.084804684
143	0x3e25aa8a	0.16178337
144	0x3d889a1c	0.06670019
145	0xbbc2ae40	-0.0059411824
146	0xbe1a28ce	-0.15054628
147	0xbe7590f8	-0.23981082
148	0xbcdb8a50	-0.026799351
149	0x3d8b8190	0.068118215
150	0xbdd58ed0	-0.1042763
151	0xbe77fb92	-0.2421706
152	0xbe75731c	-0.23969692
153	0x3d8be8b4	0.06831494
154	0xbe2e3f7a	-0.17016402
155	0x3ddc764c	0.10764751
156	0xbdc7cd6c	-0.09755978
157	0xbc02e500	-0.007989168
158	0xbe3f70bc	-0.18695349
159	0xbc9665b0	-0.018359035
160	0xbdf610a6	-0.12014894
161	0xbec828c1	-0.39093593
162	0xbe8cad19	-0.27475813
163	0xbe6128f7	-0.21988283
164	0x3e538050	0.20654416
165	0xbd526209	-0.051363025
166	0x3e762a16	0.24039492
167	0xbe17eee9	-0.1483723
168	0xbdfe6ea1	-0.124234445
169	0xbe882fdd	-0.26599017
170	0xbe8eaafb	-0.27864823
171	0xbcbd2222	-0.023087565
172	0xbe7a536b	-0.24445884
173	0x3c54049d	0.012940553
174	0x3bdeeda6	0.0068032322
175	0xbdf82a37	-0.12117427
176	0xbdbd844f	-0.092537515
177	0xbe44a5ee	-0.19203922
178	0xbc7fbfe0	-0.015609711
179	0xbe6c451a	-0.23073235
180	0x3dbef8f4	0.09324828
181	0xbe98bab8	-0.29829955
182	0x3ba1e1b9	0.0049402383
183	0x3e35c273	0.17749958
184	0xbd960f08	-0.07327086
185	0x3b871a54	0.0041230116
186	0x3e2cc5c0	0.1687231
187	0x3e0b5970	0.13608336
188	0x3d5ab395	0.05339392
189	0xbeb17a99	-0.34663847
190	0xbdefcce2	-0.11709
191	0x3ad7b03f	0.0016455724
192	0x3d909bc6	0.070609614
193	0xbcb6ee8c	-0.022330545
194	0xbe1376c5	-0.14400776
195	0x3e2d865b	0.16945784
196	0x3ec08059	0.37597921
197	0x3e550188	0.20801365
198	0xbdb17e33	-0.08666649
199	0xbe3f4488	-0.18678486
200	0xbddc8b03	-0.10768702
201	0xbd5b2e5d	-0.053511012
202	0x3d33e40b	0.04391865
203	0xbe89b3b0	-0.26894903
204	0xbf04758f	-0.5174188
205	0xbdf07433	-0.11740913
206	0xbf1835fa	-0.5945736
207	0xbf1a3a09	-0.60244805
208	0xbe75a32e	-0.2398803
209	0x3e196970	0.14981627
210	0xbe1c75ae	-0.15279266
211	0x3e3bee80	0.183527
212	0xbcb6e430	-0.022325605
213	0x3e0ef732	0.13961485
214	0xbd60ac00	-0.054851532
215	0x3e1a9fd2	0.15100029
216	0xbdecbee0	-0.11559844
217	0x3da9b2a4	0.08286026
218	0xbe751476	-0.23933586
219	0xbe460654	-0.19338351
220	0x3e73c86a	0.2380692
221	0xbda67ae4	-0.08128908
222	0x3e05fc10	0.13084435
223	0xbe0d6fc2	-0.13812163
224	0x3d19b577	0.037526574
225	0x3dca4e76	0.098782465
226	0x3e460913	0.19339399
227	0xbea535eb	-0.322677
228	0x3d51186d	0.051048685
229	0x3c9de076	0.01927207
230	0x3e9966eb	0.29961333
231	0xbdf981d5	-0.121829666
232	0xbd5492f5	-0.05189796
233	0xbe6f2ed4	-0.23357707
234	0x3cad4117	0.021149201
235	0x3e40e91d	0.18838926
236	0xbd719a82	-0.05898524
237	0x3d5977bb	0.0530927
238	0x3e194704	0.14968497
239	0xbe846841	-0.2586079
240	0x3e287d40	0.16454029
241	0xbd3eb2e0	-0.046557307
242	0xbd8a5444	-0.06754354
243	0x3e573ade	0.2101855
244	0xbe343c1c	-0.17601055
245	0x3e08dc50	0.13365293
246	0x3e65d64e	0.22445032
247	0x3e1842de	0.14869258
248	0xbca061a0	-0.019577801
249	0xbe5045ce	-0.20339128
250	0x3c7a4120	0.015274316
251	0x3df0e25c	0.117619246
252	0x3d5b5e08	0.053556472
253	0xbd7aff38	-0.06127855
254	0x3d5ddeb8	0.05416748
255	0x3d2dcb20	0.042430043

linear1.bias f4 [128]
0	0xbdca9bbe	-0.09892987
1	0xbf3256bb	-0.6966359
2	0xbe20ec05	-0.15715034
3	0xbe85a97d	-0.26105872
4	0xbd9df01c	-0.07711813
5	0xbe582178	-0.21106517
6	0x3a88e349	0.0010443713
7	0xbe9ed0e4	-0.31018746
8	0x3d94de1c	0.072689265
9	0x3e609a80	0.21933937
10	0xbe659291	-0.22419192
11	0x3daf4021	0.085571535
12	0x3d11af94	0.035567835
13	0x3e139332	0.1441162
14	0xbd95203b	-0.07281538
15	0xbe673960	-0.2258048
16	0x3dc70320	0.09717393
17	0xbe19965e	-0.14998767
18	0x3db00e74	0.08596507
19	0xbebd0737	-0.36919567
20	0xbe441a18	-0.19150579
21	0xbe668a46	-0.22513685
22	0xbe0192f2	-0.12653711
23	0x3d568078	0.05236861
24	0xbebba56e	-0.3664965
25	0xbfb1349d	-1.3844181
26	0xbe79ee78	-0.24407375
27	0xbe212889	-0.15738119
28	0xbe06c87e	-0.13162419
29	0xbe175a0b	-0.14780442
30	0xbe37e8e9	-0.17959942
31	0xbe9f7dc4	-0.3115064
32	0xbdfa055c	-0.122080535
33	0xba95e000	-0.0011434555
34	0xbf7fd528	-0.99934626
35	0x3e153df4	0.14574414
36	0xbe0c8dce	-0.13725969
37	0xbd008862	-0.031380065
38	0xbf03bfeb	-0.5146472
39	0xbe38a69e	-0.1803231
40	0xbf84c3f4	-1.03723
41	0xbefc3d4d	-0.4926552
42	0x3e0f06ca	0.13967434
43	0x3df229b0	0.118243575
44	0x3d0246c9	0.031805787
45	0xbed34ab3	-0.41267928
46	0xbe6b1b6a	-0.22959676
47	0xbf764c12	-0.96209824
48	0xbfa2344a	-1.2672207
49	0xbedf422d	-0.43605176
50	0xbf0a0711	-0.5391703
51	0xbe5a302f	-0.21307443
52	0x3e378a6a	0.17923895
53	0x3c4fa454	0.012673456
54	0xbf0732ea	-0.52812064
55	0xbdb30b90	-0.0874244
56	0xbf45c30e	-0.77250755
57	0x3db7e6e0	0.08979583
58	0x3cfe76e6	0.031062555
59	0xbeb9f78c	-0.36321676
60	0xbeca63c6	-0.39529246
61	0x3ba92ef3	0.0051630675
62	0x3dadf654	0.08494249
63	0xbdc08366	-0.09400062
64	0xbe960b95	-0.2930571
65	0xbf98a227	-1.1924485
66	0xbe0e995e	-0.13925692
67	0xbe436b6b	-0.19083945
68	0xbfc6f2e2	-1.5542872
69	0x3d4cbd05	0.04998495
70	0x3e3597b8	0.17733657
71	0xbe8ede9f	-0.2790422
72	0xbec82944	-0.39093983
73	0xbf945a71	-1.15901
74	0x3e312422	0.1729894
75	0xbe74f4b4	-0.23921472
76	0xbe069710	-0.13143563
77	0xbe909ee3	-0.2824622
78	0xbdc105ae	-0.094249114
79	0xbf70da13	-0.94082755
80	0xbf23143e	-0.6370276
81	0x3c752ce0	0.014964312
82	0x3ed62e3b	0.41832146
83	0x3c9f7faa	0.019470055
84	0xbf96caa5	-1.1780592
85	0x3d028c25	0.031871933
86	0xbd07c258	-0.033144325
87	0xbf87616a	-1.0576603
88	0xbe0975b7	-0.13423811
89	0xbe18fa90	-0.14939332
90	0x3d06f4bc	0.03294824
91	0xbe471c24	-0.19444329
92	0x3d33eb53	0.043925595
93	0xbf8f569f	-1.119831
94	0xbd011208	-0.031511337
95	0xbedd9de2	-0.43284518
96	0xbe3c8c8a	-0.18412986
97	0x3e34b150	0.17645764
98	0x3d391c13	0.04519279
99	0x3d3cf15f	0.046128627
100	0xbd34df40	-0.04415822
101	0xbeced860	-0.40399456
102	0x3de6280f	0.11238109
103	0xbf74d3a5	-0.95635444
104	0xbe45563f	-0.19271182
105	0xbe8f22a9	-0.2795613
106	0xbe994ffc	-0.29943836
107	0xbe8527a9	-0.2600682
108	0xbeac0172	-0.33594853
109	0xbf1aac2a	-0.6041895
110	0xbe7474e2	-0.23872712
111	0xbecf84da	-0.40531045
112	0xbe2e5ef2	-0.17028406
113	0xbe25ed21	-0.16203739
114	0x3e0f7da8	0.14012778
115	0xbd0fcc6d	-0.035107065
116	0xbe71f54a	-0.23628727
117	0xbe66f394	-0.22553855
118	0xbe78f5d6	-0.24312529
119	0x3dad5158	0.08462781
120	0x3e5abc58	0.2136091
121	0xbee15a99	-0.44014433
122	0x3e776196	0.2415832
123	0x3de8092c	0.113298744
124	0xbe5e00e0	-0.21680021
125	0xbe522ccb	-0.205249
126	0xbdd009a8	-0.10158092
127	0xbc9195d0	-0.017771631

linear2.weight f4 [3, 128]
0	0xba9d8214	-0.0012016916
1	0x3e425bd5	0.18980344
2	0x3c3940e1	0.011306972
3	0x3e51edb4	0.20500833
4	0xbc38dc80	-0.01128304
5	0xbd2036fa	-0.03911493
6	0xbd8dcbd3	-0.06923642
7	0xb9c839d3	-0.00038190055
8	0x3cf19abc	0.029492728
9	0x3d8ceea5	0.06881455
10	0x3c45d6a2	0.012075098
11	0x3c33c16b	0.010971407
12	0x3e8a27a1	0.2698336
13	0xbd8a5f74	-0.067564875
14	0x3c51be5b	0.012801732
15	0xbd7b3e52	-0.06133873
16	0x3d0277ea	0.03185264
17	0x3cc6dc3c	0.024274938
18	0x3cb283b8	0.021791324
19	0x3d5b6f3d	0.053572882
20	0x3c8e9cac	0.017408691
21	0x3e1d62d1	0.15369727
22	0xbbee94a1	-0.0072809015
23	0xbdadc680	-0.084851265
24	0x3d45e49e	0.04831373
25	0x4083b718	4.1161003
26	0xbc4abc30	-0.012373969
27	0xbbaaddfc	-0.005214451
28	0xbcf3511e	-0.029701766
29	0xbda5b313	-0.08090796
30	0x3dd87847	0.10569816
31	0xbcd6a52f	-0.026201813
32	0x3d57f08a	0.05271963
33	0x3d5fb1da	0.05461297
34	0x3ebbccbf	0.36679646
35	0x3bb800d0	0.005615331
36	0x3d68a03a	0.05679343
37	0xbd479e34	-0.04873486
38	0xbd169b37	-0.03676912
39	0xbd7c3895	-0.0615774
40	0x3e5f9a65	0.2183624
41	0x3da18c83	0.078881286
42	0x3d5c4d8a	0.053784885
43	0x3cd05fa0	0.025436223
44	0x3e6d9e6f	0.23204969
45	0x3d268ec2	0.04066349
46	0x3ce571e0	0.028008401
47	0x3ee0954e	0.4386391
48	0x3f869eb7	1.0517186
49	0x3d8fab36	0.07015078
50	0x3d1b1c20	0.03786862
51	0xbe715ea5	-0.2357126
52	0x3cd2c7e0	0.025730073
53	0x3d033ace	0.032038502
54	0xbd7203f0	-0.059085786
55	0xbc9d8bf4	-0.019231774
56	0x3f1e0f41	0.61742026
57	0xbd19b947	-0.03753021
58	0x3dc603a2	0.09668662
59	0x3d8790c0	0.06619406
60	0x3dfc05e4	0.12305811
61	0xbc807986	-0.015682947
62	0xbd9b4be2	-0.07582833
63	0x3e11b2d5	0.14228375
64	0x3d16c471	0.036808435
65	0xbcd663f9	-0.026170718
66	0x3c8eec4c	0.01744666
67	0x3e3f7bbc	0.18699545
68	0x3f05adbb	0.52218217
69	0x3c1ea231	0.009682224
70	0xbcff1ba6	-0.031141113
71	0x3e457e69	0.19286503
72	0xbce670a1	-0.028129878
73	0x3f952bda	1.1654007
74	0x3d258a02	0.040414818
75	0xbc9cf7f4	-0.019161202
76	0xbc91ea6c	-0.017811976
77	0x3e0a6b3e	0.13517472
78	0x3bf0e47f	0.0073514576
79	0x3e1cf0c5	0.15326221
80	0x3f8ffa60	1.1248283
81	0xbb63a540	-0.0034735948
82	0xbd4ad693	-0.04952104
83	0x3d6c49ac	0.057687446
84	0x3d68eca2	0.056866296
85	0x3dc5f725	0.0966628
86	0xbbf70ee3	-0.0075396164
87	0xbe0fd5a3	-0.1404634
88	0xbc15b414	-0.009137172
89	0xbe33cbb4	-0.17558175
90	0xbc0a9fee	-0.008460982
91	0xbd1ef181	-0.038804535
92	0xbc0c4476	-0.008561244
93	0xbead31d3	-0.33827075
94	0x3d81a2e3	0.06329896
95	0x3d4e272c	0.050330326
96	0xbc2317b0	-0.009954378
97	0x3c877878	0.016536936
98	0xbd8c8454	-0.06861177
99	0xbb5d7040	-0.003378883
100	0x3d0dde46	0.034635805
101	0xbb92db37	-0.004481699
102	0x3d81f209	0.06344993
103	0x3f90b670	1.1305676
104	0x3d2121f2	0.039339013
105	0xbd64de40	-0.055876017
106	0x3d1377eb	0.036003035
107	0x3d12919d	0.0357834
108	0x3dc5c192	0.09656061
109	0x3c9e9379	0.01935743
110	0xbc35c890	-0.011095181
111	0x3e69c0ec	0.228275
112	0x3daa7dbb	0.083247624
113	0xbb9cd915	-0.0047866204
114	0xbd91b624	-0.07114819
115	0x3e99b6bb	0.30022225
116	0xbe02c862	-0.12771752
117	0xbc78daa8	-0.01518885
118	0xbda2ae15	-0.0794336
119	0xbc16f6a8	-0.009214081
120	0xbd0cde4a	-0.03439168
121	0x3d4d89e7	0.050180342
122	0x3b880660	0.0041511506
123	0xbd25bd80	-0.040463924
124	0x3da09a53	0.07841935
125	0xbcdecc3a	-0.027196992
126	0xbda6751e	-0.08127807
127	0xbd1919de	-0.037378184
128	0xbc947703	-0.018123155
129	0x3fda6bbf	1.7064131
130	0xbd2ba0be	-0.041901343
131	0x3f1862f0	0.59525967
132	0x3d7cdc06	0.06173327
133	0x3dacb78f	0.084334485
134	0xbd4c37ae	-0.049857788
135	0x3bf6611a	0.0075188996
136	0xbd079fa9	-0.03311125
137	0x3c4d23a8	0.012520708
138	0x3d59dc0b	0.053188365
139	0x3b31fdfc	0.0027159443
140	0x3e73bef8	0.23803318
141	0x3d19dd06	0.0375643
142	0xbb7aee5b	-0.0038289044
143	0x3cfc0468	0.03076382
144	0x3d96f929	0.07371742
145	0xbc83d47c	-0.016092531
146	0x3da523b9	0.08063454
147	0x3f588542	0.84578335
148	0xbc918360	-0.01776284
149	0x3e5daea5	0.21648653
150	0x3ccb7ed4	0.02484075
151	0xbc97dbb8	-0.018537387
152	0x3d571f71	0.05252022
153	0x3f45ced2	0.7726871
154	0xbc8a7290	-0.01690033
155	0x3b3b861c	0.002861387
156	0x3d372833	0.04471607
157	0xbc3d9511	-0.011571185
158	0x3e57a40a	0.2105867
159	0x3e7d3d28	0.2473036
160	0xbd08f101	-0.033432964
161	0x3d727792	0.059196062
162	0x3fa7b19c	1.3101077
163	0xbb31e780	-0.0027146041
164	0xbd1934a3	-0.037403714
165	0x3c91d283	0.017800575
166	0x3caad528	0.020853594
167	0xbd2c6c03	-0.042095196
168	0x4014839e	2.3205333
169	0x3e9222d3	0.28542194
170	0xbd71b1cf	-0.059007462
171	0xbdb49c0a	-0.088188246
172	0x3e8392d8	0.2569797
173	0x3cc3b82c	0.02389153
174	0x3bd14130	0.006385945
175	0x3f5fc17c	0.8740461
176	0x401bff2f	2.4374502
177	0x3ddddba8	0.10832912
178	0x3e6a2a8a	0.2286779
179	0xbc8a6c5f	-0.016897378
180	0x3d50b726	0.050955914
181	0x3d263986	0.040582202
182	0x3d309b5c	0.043116912
183	0xbce1a2d8	-0.02754347
184	0x3f675c9c	0.90375686
185	0x3da39e11	0.07989133
186	0x3c3091db	0.010776962
187	0x3e804bd0	0.2505784
188	0x3e645042	0.22296241
189	0x3ce0e8e2	0.027454797
190	0x3d8f7999	0.07005615
191	0x3e944f4d	0.28966752
192	0xbd9b8dd3	-0.0759541
193	0x4055b5c3	3.3392189
194	0x3c48fd30	0.012267396
195	0x3e9107ea	0.2832635
196	0x400affe0	2.1718674
197	0xbcb2cd23	-0.021826332
198	0x3ba897c0	0.005145043
199	0x3d834c60	0.06411052
200	0x3d0aad84	0.033856884
201	0x401a6305	2.4122937
202	0x3d28c28e	0.041201167
203	0x3cfb2d1c	0.030661158
204	0xbd93b90e	-0.07213031
205	0x3e916657	0.28398392
206	0x3cef8224	0.02923686
207	0x3f99f785	1.2028662
208	0x3c0295ed	0.007970315
209	0xbcab3d48	-0.020903245
210	0x40c6f55b	6.2174506
211	0x3d7da4b0	0.061924636
212	0x3fe15533	1.7604126
213	0x3dc4a288	0.09601313
214	0xbd009aa0	-0.031397462
215	0x3f95457c	1.166183
216	0x3bc128a6	0.0058947382
217	0x3c292256	0.010323128
218	0xbd0681ba	-0.03283856
219	0xbe09d64d	-0.13460656
220	0xbd3a6312	-0.045504637
221	0x3fa41a9c	1.282062
222	0xbcb63374	-0.022241332
223	0xbcb7a9f5	-0.022419909
224	0xbd486455	-0.04892381
225	0x3c97f43c	0.018549077
226	0xbc5aaca7	-0.013346828
227	0xbc2778bc	-0.010221656
228	0x3da51799	0.080611415
229	0x3c9e12e3	0.019296115
230	0x3d7abb13	0.061213564
231	0x400b7b60	2.1794052
232	0x3da09663	0.07841184
233	0x3d03aadb	0.032145362
234	0xbd400d0e	-0.04688745
235	0x3e264b72	0.16239718
236	0x3d8d9ec1	0.069150455
237	0x3fde99a5	1.7390639
238	0xbd0bf917	-0.034173097
239	0xbe411cdb	-0.18858664
240	0xbda8c939	-0.08241505
241	0x3baef595	0.0053393343
242	0xbd98efdb	-0.07467624
243	0x3e02d0c8	0.12774956
244	0xbc404c40	-0.011736929
245	0xbce69fa2	-0.02815229
246	0x3c696a60	0.014246553
247	0xbd7f8a20	-0.062387586
248	0xbcf8ab14	-0.030355014
249	0x3d196e3e	0.03745865
250	0xbb9c8ee0	-0.004777774
251	0xbd2b07b0	-0.04175538
252	0x3d92ed41	0.07174159
253	0xbd247337	-0.04014894
254	0x3cf5df38	0.030013666
255	0xbc259a68	-0.010107614

linear2.bias f4 [3]
0	0xc0417167	-3.0225465
1	0xbff8f145	-1.944863
2	0xbf7077d0	-0.9393282
